…
cnn_major_shallow.py:70: UserWarning: Update your `Conv2D` call to the Keras 2 API: `Conv2D(64, (3, 3), input_shape=(48, 48, 1..., padding="same")`
  model.add(Conv2D(64, (3, 3), border_mode='same', input_shape=(48, 48, 1)))
cnn_major_shallow.py:77: UserWarning: Update your `Conv2D` call to the Keras 2 API: `Conv2D(128, (5, 5), padding="same")`
  model.add(Conv2D(128, (5, 5), border_mode='same'))
Saved model to disk
_________________________________________________________________
Layer (type)                 Output Shape              Param #   
=================================================================
conv2d_1 (Conv2D)            (None, 48, 48, 64)        640       
_________________________________________________________________
batch_normalization_1 (Batch (None, 48, 48, 64)        256       
_________________________________________________________________
activation_1 (Activation)    (None, 48, 48, 64)        0         
_________________________________________________________________
max_pooling2d_1 (MaxPooling2 (None, 24, 24, 64)        0         
_________________________________________________________________
dropout_1 (Dropout)          (None, 24, 24, 64)        0         
_________________________________________________________________
conv2d_2 (Conv2D)            (None, 24, 24, 128)       204928    
_________________________________________________________________
batch_normalization_2 (Batch (None, 24, 24, 128)       512       
_________________________________________________________________
activation_2 (Activation)    (None, 24, 24, 128)       0         
_________________________________________________________________
max_pooling2d_2 (MaxPooling2 (None, 12, 12, 128)       0         
_________________________________________________________________
dropout_2 (Dropout)          (None, 12, 12, 128)       0         
_________________________________________________________________
flatten_1 (Flatten)          (None, 18432)             0         
_________________________________________________________________
dense_1 (Dense)              (None, 512)               9437696   
_________________________________________________________________
batch_normalization_3 (Batch (None, 512)               2048      
_________________________________________________________________
activation_3 (Activation)    (None, 512)               0         
_________________________________________________________________
dropout_3 (Dropout)          (None, 512)               0         
_________________________________________________________________
dense_2 (Dense)              (None, 7)                 3591      
=================================================================
Total params: 9,649,671
Trainable params: 9,648,263
Non-trainable params: 1,408
_________________________________________________________________
None
 Accuracy on Test set :  0.5631095012538312
