…
Epoch 510/512
 - 24s - loss: 0.0078 - categorical_accuracy: 0.9916 - val_loss: 0.3870 - val_categorical_accuracy: 0.6110
Epoch 511/512
 - 24s - loss: 0.0077 - categorical_accuracy: 0.9913 - val_loss: 0.3356 - val_categorical_accuracy: 0.6328
Epoch 512/512
 - 24s - loss: 0.0074 - categorical_accuracy: 0.9915 - val_loss: 0.2804 - val_categorical_accuracy: 0.5879
Saved model to disk
_________________________________________________________________
Layer (type)                 Output Shape              Param #   
=================================================================
conv2d_13 (Conv2D)           (None, 48, 48, 64)        640       
_________________________________________________________________
batch_normalization_19 (Batc (None, 48, 48, 64)        256       
_________________________________________________________________
activation_19 (Activation)   (None, 48, 48, 64)        0         
_________________________________________________________________
max_pooling2d_13 (MaxPooling (None, 24, 24, 64)        0         
_________________________________________________________________
dropout_19 (Dropout)         (None, 24, 24, 64)        0         
_________________________________________________________________
conv2d_14 (Conv2D)           (None, 24, 24, 128)       204928    
_________________________________________________________________
batch_normalization_20 (Batc (None, 24, 24, 128)       512       
_________________________________________________________________
activation_20 (Activation)   (None, 24, 24, 128)       0         
_________________________________________________________________
max_pooling2d_14 (MaxPooling (None, 12, 12, 128)       0         
_________________________________________________________________
dropout_20 (Dropout)         (None, 12, 12, 128)       0         
_________________________________________________________________
conv2d_15 (Conv2D)           (None, 12, 12, 512)       590336    
_________________________________________________________________
batch_normalization_21 (Batc (None, 12, 12, 512)       2048      
_________________________________________________________________
activation_21 (Activation)   (None, 12, 12, 512)       0         
_________________________________________________________________
max_pooling2d_15 (MaxPooling (None, 6, 6, 512)         0         
_________________________________________________________________
dropout_21 (Dropout)         (None, 6, 6, 512)         0         
_________________________________________________________________
conv2d_16 (Conv2D)           (None, 6, 6, 512)         2359808   
_________________________________________________________________
batch_normalization_22 (Batc (None, 6, 6, 512)         2048      
_________________________________________________________________
activation_22 (Activation)   (None, 6, 6, 512)         0         
_________________________________________________________________
max_pooling2d_16 (MaxPooling (None, 3, 3, 512)         0         
_________________________________________________________________
dropout_22 (Dropout)         (None, 3, 3, 512)         0         
_________________________________________________________________
flatten_4 (Flatten)          (None, 4608)              0         
_________________________________________________________________
dense_10 (Dense)             (None, 256)               1179904   
_________________________________________________________________
batch_normalization_23 (Batc (None, 256)               1024      
_________________________________________________________________
activation_23 (Activation)   (None, 256)               0         
_________________________________________________________________
dropout_23 (Dropout)         (None, 256)               0         
_________________________________________________________________
dense_11 (Dense)             (None, 512)               131584    
_________________________________________________________________
batch_normalization_24 (Batc (None, 512)               2048      
_________________________________________________________________
activation_24 (Activation)   (None, 512)               0         
_________________________________________________________________
dropout_24 (Dropout)         (None, 512)               0         
_________________________________________________________________
dense_12 (Dense)             (None, 7)                 3591      
=================================================================
Total params: 4,478,727
Trainable params: 4,474,759
Non-trainable params: 3,968
_________________________________________________________________
None
 Accuracy on Test set :  0.5937587071607691
